Final_Model.pt (torch, 242263 bytes, 6 tensors)

weight f4 [32, 1, 3, 3]
000000 6f b6 b1 bb df d0 a8 3e 64 79 a8 3e da 16 08 bf
       -0.005423359 0.32971856 0.32905114 -0.5315987
000010 6d e3 3b 3e ed 42 45 3e dc 46 f7 3c d6 0a f9 bd
       0.18348475 0.19263811 0.030185156 -0.1216027
000020 0c 9d b3 bd df 61 e0 3e 8e 02 9d be e5 e0 24 be
       -0.08770189 0.4382467 -0.30666012 -0.16101415
000030 a0 f5 ee 3e 07 45 de bd e7 41 c8 bb 35 11 b9 3e
       0.46671772 -0.1085301 -0.006111372 0.3614594
000040 37 aa 8e be 4f 33 5a be b4 d7 e9 be 64 fb bb 3e
       -0.2786424 -0.21308635 -0.4567238 0.36715233
000050 49 ef ad 3d 09 bc 77 be 7b a5 4c 3d 5b 98 2a be
       0.08492906 -0.24192823 0.049962502 -0.16659681
000060 cc d5 41 be 66 a9 16 3e b3 86 b0 3d 8d aa 93 3e
       -0.18929213 0.14713058 0.08619442 0.28841057
000070 c0 9f de 3e 58 c1 09 be 35 28 d8 3d d3 c3 70 3e
       0.43481255 -0.13452661 0.10554544 0.23512201
000080 03 45 d1 be 93 cf 39 be 67 10 3c 3c 2d 54 2d bf
       -0.40872964 -0.1814559 0.01147852 -0.6770657
000090 43 57 e4 3e 9b 68 5a be 98 c3 c5 3e cc 29 97 3d
       0.44597825 -0.21328966 0.3862579 0.07381019
0000a0 92 6f 07 be 42 13 81 3c 27 60 b4 be de b7 dc be
       -0.13226154 0.015756253 -0.35229608 -0.4310903
0000b0 4b f7 2c 3e 9b 26 87 be f5 19 c1 3e ba 44 61 be
       0.1689121 -0.2639664 0.37715116 -0.21998873
0000c0 e8 09 85 be 07 b8 75 3c 5e 92 2a be 32 0b 18 bf
       -0.2598412 0.014997489 -0.16657397 -0.5939208
0000d0 3e f2 76 be 45 12 78 be be 19 82 bf a5 8a 7c bf
       -0.24115846 -0.2422572 -1.0164106 -0.98649055
0000e0 1d 14 46 bf 61 0e 25 3d 9b 08 3d 3e c2 33 e4 3e
       -0.7737444 0.040296916 0.18460314 0.44570738
0000f0 71 f7 b2 3d 63 e8 9f 3e 4d 5f 1d be 3e c4 a6 be
       0.08738602 0.31231984 -0.15368386 -0.32571596
000100 ff 1a 99 3e e1 aa b2 bd bc 08 fa be 6f ae a6 3c
       0.2990341 -0.08723999 -0.4883479 0.020346848
000110 ac e4 f7 bd 4b 6e 7f 3e 6a aa d2 3e e2 91 e8 bd
       -0.121041626 0.24944417 0.4114564 -0.1135595
000120 0d 87 60 bc 76 de a9 3e e0 88 00 3f 31 29 6d 3e
       -0.013704074 0.33177537 0.50208855 0.23160245
000130 9c 29 f7 be bd 16 92 3e ee 80 e0 be 99 40 13 bf
       -0.48273933 0.28532973 -0.43848366 -0.57520443
000140 dc d3 83 bd ad 8a 05 be c9 3c ce 3c 26 09 34 3e
       -0.06436893 -0.13041182 0.025175469 0.17581615
000150 eb b6 eb be 5d 3e 65 be 2b a4 13 3e f2 e1 64 be
       -0.46037993 -0.22387071 0.14418094 -0.22351816
000160 21 d5 96 3e 20 17 ef 3e 5a b2 c7 bc 5d e8 e7 bd
       0.2945948 0.4669733 -0.024377037 -0.11323617
000170 7c d1 54 be c0 f2 c8 bd 52 33 05 bf be ec 82 be
       -0.20783037 -0.09811926 -0.52031434 -0.25571245
000180 ff d9 18 3f 27 70 c6 3d 15 84 a1 3e 50 5d 8c 3d
       0.59707636 0.0968936 0.31546083 0.068537354
000190 c9 7f 6f be 62 c2 bf 3e 76 00 4b 3e 72 1f 89 be
       -0.2338859 0.3745299 0.19824395 -0.26781803
0001a0 9d b2 8d 3e 3b dd b3 bd ff 01 31 be 34 fa 99 be
       0.27675334 -0.08782431 -0.17285918 -0.30073702
0001b0 d4 45 e9 bd 6e 0c c8 3e c2 71 66 be c9 00 71 be
       -0.11390272 0.39071983 -0.22504333 -0.23535456
0001c0 60 79 4b be a5 ec e1 be 6d e5 c9 be c4 f3 6d 3e
       -0.1987052 -0.44125858 -0.3943285 0.2323752
0001d0 21 8f 90 be 56 3f f9 3e 8b 7b 24 3e 80 e8 35 3e
       -0.282342 0.48681134 0.16062753 0.17764473
0001e0 e6 cd 3b 3e ff c6 35 be b8 bd 46 bc 8c 97 dc 3c
       0.18340263 -0.17751692 -0.012130193 0.026927732
0001f0 dd 27 c1 bd 46 c5 1f bf 9a 00 69 3e 1c ae 8e be
       -0.094314314 -0.6241039 0.22754136 -0.2786721
000200 d0 bb 2f 3e 2e ad d7 be f7 b1 a9 be f3 ad e4 bb
       0.17161489 -0.42124313 -0.3314359 -0.006978744
000210 91 e3 36 be f9 1b fe 3d 09 8a 00 3f c7 73 4f 3d
       -0.17860247 0.12407679 0.50210625 0.050647523
000220 b4 d4 bc 3e ec c8 b2 3e f3 a3 94 3e 6c dd 80 3d
       0.3688103 0.34918916 0.29031333 0.06292233
000230 09 3b cd 3d 9a 00 02 bf 1f da 95 be 3e a4 17 3e
       0.10021026 -0.5078217 -0.29267976 0.14808747
000240 35 d4 82 be 22 1f cb bd 23 42 c4 be 88 d3 b7 be
       -0.25552526 -0.099180475 -0.38331708 -0.35903573
000250 29 44 b2 bd 81 46 e0 3e 38 ce 31 3d d8 0a b9 3e
       -0.08704407 0.4380379 0.043409556 0.36141086
000260 dc 5d a8 3e 4a 18 b5 be a0 1a 2b bf fa 3a 86 3e
       0.3288411 -0.35370094 -0.668375 0.2621687
000270 34 8b 71 bc 21 d5 d6 be c3 a6 c0 3e 2a ad 73 3e
       -0.014742661 -0.4195948 0.3762723 0.23796526
000280 95 76 8c 3e 4c 25 e7 3e 92 9c 2c bf 85 5f d8 be
       0.2743422 0.45145643 -0.6742641 -0.42260376
000290 10 56 e4 3d d0 8a 06 3e 09 3c 08 3e 7f cb d3 3c
       0.111492276 0.1313889 0.13304152 0.02585387
0002a0 ef c5 a0 3e 87 78 4c 3e a6 36 16 3e 23 10 92 bd
       0.3140101 0.19967853 0.14669284 -0.07131984
0002b0 49 3b ca 3c 3f 1c d6 3e 9c 96 03 bf 67 7e c0 be
       0.024686472 0.41818425 -0.51401687 -0.37596437
0002c0 92 65 46 3d 20 f4 ed 3d 86 0a eb bd 52 ae f8 3e
       0.04843671 0.11618829 -0.114766166 0.48570496
0002d0 12 0d ba bd dd 17 54 be 2d 3d ce 3e 20 40 ac be
       -0.09084524 -0.20712228 0.40281048 -0.33642673
0002e0 5d e2 8f be 3d 0e be 3e b9 2b fb 3c 6c e8 33 be
       -0.2810239 0.37120238 0.030660497 -0.1756913
0002f0 41 2c b5 bd 88 98 ca 3d e8 50 fb be 22 fa c4 be
       -0.088463314 0.09892374 -0.49085164 -0.38472086
000300 c4 d8 a0 be 99 95 e0 bd 9f ea 6d 3d 0c 02 d8 3e
       -0.3141538 -0.109660335 0.05808508 0.42189062
000310 5a cc 92 3e 81 f6 c0 3e 97 f9 f1 3c e0 2d fd 3e
       0.28671533 0.37688068 0.029537959 0.49449062
000320 7d d9 09 3f 5f 1c f6 bc a9 d3 79 3e cf ab 96 be
       0.53847486 -0.030042825 0.24397148 -0.29427955
000330 50 82 4c be 7b 1f 0b bf d3 e4 2a be 9b 7e b3 be
       -0.19971585 -0.5434491 -0.16688852 -0.3505753
000340 5a ed 09 be 72 7e e3 be 11 ae e0 3e 5e 0e a1 3d
       -0.13469449 -0.44432408 0.43882802 0.078640684
000350 66 a3 62 be 1b e2 01 3f 3a 10 af 3e 2f a2 1e be
       -0.22132644 0.50735635 0.34192067 -0.15491556
000360 57 36 ad 3e 83 11 ae 3e c0 6f c9 3c 46 7c 42 3e
       0.3383052 0.33997735 0.02458942 0.18992719
000370 10 3d 9c 3e a2 94 df ba 8d 34 a5 3e 3e bf 83 3e
       0.30515337 -0.0017057846 0.32266656 0.25731844
000380 2f 75 81 3e 2b c5 28 3d 52 a3 a2 be cd 6d e0 be
       0.25284716 0.04120366 -0.3176523 -0.4383377
000390 86 41 20 be 55 6a 87 3e 9a c7 c5 3b ab 31 52 3e
       -0.15649995 0.26448312 0.0060357573 0.2052676
0003a0 a5 90 e4 3e 37 5c 9a 3e 35 55 22 be fd 85 34 3e
       0.44641605 0.3014848 -0.15852816 0.17629237
0003b0 d5 96 10 3f 72 4c 83 be 20 d5 95 be a4 f4 87 3e
       0.5648015 -0.2564426 -0.29264164 0.26553833
0003c0 80 17 bb be 3d 5d dd be a9 72 12 3f bf e2 d7 be
       -0.36541367 -0.43235198 0.5720621 -0.4216518
0003d0 c8 df e0 be d2 af 6a 3e 3e 3c c3 bc cd 70 ac 3e
       -0.43920732 0.22918633 -0.023832437 0.3367981
0003e0 61 70 2c be bd 40 e2 3e 49 22 9c 3e 54 95 4e be
       -0.16839744 0.44190016 0.30494907 -0.20174152
0003f0 bf 3f bf be d2 09 ad 3e e8 3f c2 3e fb 35 eb be
       -0.37353322 0.33796555 0.37939382 -0.4593962

bias f4 [32]
000000 7d 9b 12 be 7c 0a dd bd df c7 a2 3e 0d 87 c8 3e
       -0.14317127 -0.10793015 0.31793115 0.39165536
000010 06 a9 65 3d 70 7b d0 3e 64 ae db bd 31 35 29 3e
       0.056069396 0.40719175 -0.10726622 0.16524197
000020 b0 33 77 3e 47 83 0f 3d bc ae 65 3e 7e f7 21 3e
       0.24140811 0.035037305 0.22429937 0.15817067
000030 15 c7 d0 3e b3 93 d7 bc 9c 47 6b 3e 81 dc 90 be
       0.40776888 -0.026315546 0.22976536 -0.2829323
000040 1c 17 27 3d fa fc 0e 3c 7b b8 ff 3d b9 79 1b 3d
       0.040793523 0.0087273065 0.12486359 0.03795788
000050 80 ec c8 3e ee 36 a0 3d 02 d4 84 bc c4 f5 cd 3c
       0.39242935 0.07822977 -0.016214374 0.025141604
000060 83 cf 50 3e f5 da 18 be e3 7f 15 3d 2e fb 85 bc
       0.2039166 -0.14927275 0.036498915 -0.016355123
000070 49 90 a7 3b 54 21 8c 3e 81 3a 37 be 12 f6 5b ba
       0.0051136357 0.27369177 -0.17893411 -0.00083908543

weight f4 [64, 32, 3, 3]
000000 c7 01 b9 3d d2 7e 5f bd c3 20 89 3d 91 cb 10 be
       0.09033542 -0.054564305 0.06695702 -0.14140154
000010 63 9e f0 be ec 25 89 bd 51 54 58 bd 85 5f 85 be
       -0.4699584 -0.06696686 -0.052814785 -0.26049438
000020 7c 00 d7 be 4c 21 27 bc 64 99 4b 3e 62 19 05 be
       -0.41992557 -0.01020081 0.19882733 -0.12997964
000030 5b b2 34 bc ba 43 bd 3d 7f 54 7a be 23 14 2a be
       -0.011028851 0.092414334 -0.24446295 -0.16609244
000040 6a 49 0d be 09 6a 63 bd 34 ed 9d 3d 89 c1 53 3e
       -0.13797536 -0.055521045 0.077112585 0.20679297
000050 f1 d8 70 3e d1 ff c8 3d 4b 54 1c 3e 6f 4e 7b 3d
       0.23520257 0.09814418 0.1526653 0.061354097
000060 79 2e 06 bd c1 35 8c 3c 82 1f f5 bc 68 08 0c 3e
       -0.032759164 0.017115476 -0.02992225 0.13675082
000070 a7 85 0e 3e f8 41 f3 3d 41 30 9f bc 72 bc 53 3b
       0.13918172 0.11877817 -0.019432189 0.0032308367
000080 96 51 03 3b df 8b 18 be 06 32 06 be e6 3f 8b bd
       0.0020037643 -0.14897107 -0.1310502 -0.06799297
000090 c0 2d 9f 3e 80 06 a2 3d 75 29 91 3e 11 85 cb bd
       0.31089592 0.07911396 0.28351942 -0.0993749
0000a0 a7 ed 16 be a2 b2 06 3e 34 57 3d be b8 3a cc be
       -0.14739095 0.1315408 -0.18490297 -0.3988855
0000b0 21 d7 a1 be 74 04 64 3e 9b 99 a9 3e 2c 27 8a 3e
       -0.31609443 0.22267324 0.33125004 0.2698301
0000c0 e0 c8 3d 3e 55 c4 82 3e 6a 7c 95 3e 1b 6a 1b 3e
       0.18533659 0.25540414 0.29196483 0.15177195
0000d0 76 1f 70 3e 89 47 11 3e c3 32 7e 3d f1 ac 18 3d
       0.23449501 0.14187445 0.06206013 0.037274305
0000e0 43 f4 25 ba 18 da 87 be 1a bd e6 be a5 2c f6 be
       -0.00063306483 -0.2653358 -0.45066148 -0.48080936
0000f0 a1 41 29 be fd 95 62 be fd af d3 be d4 9f 23 3e
       -0.16528942 -0.22127528 -0.41345206 0.15978938
000100 48 3b 8a 3e cd c2 18 3e b9 3f cf 3d 4c 14 78 3e
       0.26998353 0.1491806 0.10119576 0.24226493
000110 e1 f6 8c 3e 76 03 00 3e 3f 4b 80 3e 04 fd 9f 3d
       0.27532104 0.1250132 0.25057408 0.07811931
000120 04 2e 3a 3e 7e a9 45 3d 5e e8 9f 3e f8 df 56 be
       0.18181616 0.048257343 0.3123197 -0.20983875
000130 8b 9e 2d be dd 90 98 3d 70 b2 da bd eb 46 9c be
       -0.1695501 0.074495055 -0.106785655 -0.30522856
000140 d6 71 0b be b0 8b ce 3d 64 3b 81 be c4 b0 8a 3e
       -0.13617644 0.10085237 -0.25240624 0.27087986
000150 2c bf b2 3d bc f5 e2 3b a1 cb 76 3e f1 3a 44 3d
       0.087278694 0.0069262665 0.24101116 0.047907773
000160 d6 2b 73 bd 32 e0 4c be 1f 26 75 3e 32 b6 ca 3d
       -0.059367977 -0.20007399 0.23940323 0.09898032
000170 13 0b 38 3d 7f 75 85 3e dc d7 9a 3e 36 c4 b0 3e
       0.044932436 0.26066205 0.30242813 0.34524697
000180 f9 27 a4 3e 9e 60 c1 3e a4 74 a7 3e 30 d9 89 3e
       0.32061747 0.37769026 0.32706177 0.26923513
000190 0f 28 42 3e 5f 50 82 3e 36 d7 ff bc eb 99 5a bd
       0.18960594 0.25451943 -0.03123055 -0.053369444
0001a0 0f d3 4e 3e 8b 84 5a be d8 ad 80 be 41 68 06 bd
       0.201977 -0.21339624 -0.25132632 -0.032814268
0001b0 c2 9f ba 3d 80 32 62 3e d7 13 47 3e 0b 2a 3a 3e
       0.09112503 0.22089577 0.19441162 0.181801
0001c0 e9 b2 95 3e b5 3f 8b 3e a4 ae 95 3d c8 63 53 3e
       0.2923806 0.27197042 0.07308701 0.20643532
0001d0 13 a5 22 3e 9a 49 55 3c 52 42 ae 3c d3 78 e5 bc
       0.15883283 0.013018036 0.021271858 -0.028011715
0001e0 00 eb 3f be 47 c7 22 be a8 48 f7 bd 35 bc 6e be
       -0.18741989 -0.15896331 -0.12074405 -0.23313983
0001f0 2c 53 d0 be 8d f4 09 be 45 a4 3e 3e ae 5d 12 be
       -0.40688455 -0.13472195 0.18617351 -0.14293548
000200 2e 28 36 3e ea da d9 3d e5 d8 e5 3d 7f fd 68 3e
       0.17788765 0.10637458 0.1122301 0.22752951
000210 cf 15 9d 3d 9b d1 16 bd f9 72 b0 bc 1b 21 6f bc
       0.07670175 -0.03682099 -0.021539198 -0.014595295
000220 71 59 48 be 12 62 4c bd 6d f7 47 be a7 de 96 be
       -0.19565369 -0.049898215 -0.19527979 -0.29466745
000230 e3 db 68 be f3 6e fe bc 43 a5 8c bc 89 ff b8 bc
       -0.2274013 -0.031058764 -0.017168647 -0.022582786
000240 67 70 ed 3d 9a bc 01 3d 8d e7 af 3d 11 94 0a 3e
       0.11593705 0.031674005 0.08589087 0.13533045
000250 19 d2 a2 3d 3a 28 06 3e 65 46 85 3e 84 2b b0 3e
       0.07950229 0.13101283 0.2603027 0.344082
000260 f0 d3 50 3e 81 10 7b 3d d1 d0 0d be 7f 22 a7 3d
       0.20393348 0.061295036 -0.13849188 0.081608765
000270 2e 2a e0 3d d9 b1 40 bd 34 b0 4b 3e 4f 9e 1d 3e
       0.10945545 -0.04704461 0.19891435 0.15392421
000280 59 bd 25 3e 91 e4 26 3e 2f bb 9a 3d ed 56 75 bd
       0.16185512 0.16298129 0.07555234 -0.059897352
000290 d9 6a bf 3d cb 73 b1 3d bf af dd bb 4b dd a6 3d
       0.093465514 0.08664664 -0.0067653353 0.08147677
0002a0 db 5b e6 3d 2d b9 9c 3e 3a ae 84 3e 69 69 41 3e
       0.11247989 0.30610028 0.25914174 0.18887867
0002b0 ee e6 8f be a7 15 a2 3e 04 5f 7d 3c ad ea 1c be
       -0.28105873 0.31657144 0.015464548 -0.15323897
0002c0 91 ed b4 3e 92 d4 98 bb c8 a0 05 be 06 9d 0c be
       0.353375 -0.004664012 -0.13049614 -0.13731775
0002d0 ee e1 05 3e 2a 35 01 3e 6c 72 8d 3e 5f 6d 0a 3c
       0.13074467 0.12617937 0.2762636 0.008448928
0002e0 3b c1 cd bd e0 2b d2 3d b1 ea cf bc 85 0f a4 bd
       -0.100466214 0.10262275 -0.025380464 -0.080107726
0002f0 56 2e 7c bd 27 9b 85 3c 40 eb 07 3d e0 70 a2 3c
       -0.061567627 0.016309334 0.033183336 0.019829214
000300 c0 24 78 3e da 94 80 3e d8 a5 52 3e 80 c1 09 3f
       0.24232769 0.25113565 0.20571077 0.5381088
000310 be 53 26 3f fe f2 13 3f 9a 6c b2 3d 6f c8 96 3d
       0.6497153 0.5779265 0.0871212 0.073624484
000320 27 12 bc 3d 61 ab 62 be a9 67 7c be fa e3 da bd
       0.0918315 -0.22135688 -0.24648918 -0.10688014
000330 3b 2d e8 ba c8 ef b5 be ab 07 c5 be cd 28 62 3d
       -0.0017713675 -0.355345 -0.38482413 0.055214692
000340 d4 14 12 3d 15 d2 f1 bc 83 ea 18 3e 71 56 3a bc
       0.035664394 -0.02951912 0.14933209 -0.011373148
000350 d3 f7 93 bd 3f 92 81 3e 36 3d 99 3e fe 5d e8 3e
       -0.07225003 0.2530689 0.29929513 0.4538421
000360 6a 60 81 bd e5 96 41 bd 4c dd b8 bd e9 13 77 bd
       -0.06317218 -0.047263045 -0.09026584 -0.060321722
000370 26 2c 84 bd 7a 92 ef bc e7 08 9d bb b2 c0 56 3d
       -0.06453733 -0.02924465 -0.004792321 0.052429862
000380 37 a5 95 39 f2 5c 33 bc da 3c 6d bd 53 c7 8b bc
       0.0002854259 -0.010947453 -0.05791936 -0.017062819
000390 62 f1 97 3d 55 34 89 bc 12 6e 2e bd b9 2a bf 3e
       0.07419087 -0.016748587 -0.04258544 0.37337282
0003a0 fb e4 b6 3e 65 19 ac 3e f6 60 e7 3d 9a b4 5a be
       0.35721573 0.33613124 0.11297791 -0.21357957
0003b0 b0 4e a3 3e 2f f7 30 be 93 2a b9 be 54 c0 96 3c
       0.3189597 -0.17281793 -0.36165294 0.018402256
0003c0 72 61 ea bd f0 e4 18 bf 85 65 c4 be 2f 91 28 3e
       -0.114443675 -0.5972433 -0.38358703 0.16461633
0003d0 76 e5 f9 bb 9b d5 99 3c 90 4a a3 3d 6a b9 d0 bd
       -0.007626231 0.018778613 0.07973206 -0.10191615
0003e0 0b 59 2d 3e e3 ea 49 3e b8 07 cd 3e 6e 5a d2 3e
       0.16928498 0.19718508 0.4004495 0.41084617
0003f0 74 5e e7 3d 47 34 de 3d 27 92 b8 3d f2 a8 f5 bb
       0.112973124 0.10849815 0.09012251 -0.0074969465

bias f4 [64]
000000 c3 46 83 bc 4c b1 3d bd fb 90 30 bd 9d c5 ae 3c
       -0.016024953 -0.04631166 -0.043107014 0.021334464
000010 00 49 30 bc 08 8d fd 3c 3b 77 6b bb cb dd 1e bd
       -0.010759592 0.030951038 -0.0035929221 -0.038785737
000020 81 6a 08 be d6 30 60 bd 7b f6 83 bd c8 78 49 bd
       -0.13321878 -0.054734074 -0.06443497 -0.04918745
000030 49 5b 6e bd d7 a1 03 bd 9a 53 66 ba 1f 9a 42 bc
       -0.058192525 -0.032136764 -0.00087862613 -0.011877566
000040 1a 67 fe bc ab f5 25 3d 2c be 9e bb 37 ad 84 bd
       -0.031055022 0.04051749 -0.0048444476 -0.064783506
000050 27 86 52 bc d3 6e 9e bd 45 f0 08 3c d6 bd 02 3d
       -0.012849367 -0.07735982 0.008358066 0.031919323
000060 e3 c1 87 bd 87 13 ac bd c7 35 2b 3d b6 7b 17 bd
       -0.06628778 -0.08402162 0.041799333 -0.036983214
000070 4c 4a c3 bc 7f c1 9f 3c d9 27 43 bc 91 b1 15 bd
       -0.023839138 0.019501446 -0.011911356 -0.036546294
000080 23 02 09 be 40 4a 7a bb c4 9b 61 3c f8 b4 a8 bd
       -0.13379721 -0.003819123 0.013770048 -0.08237642
000090 c2 f0 37 bc e5 da 59 3a bc 22 e1 3c 72 42 8e bc
       -0.011226835 0.0008310511 0.027482383 -0.017365668
0000a0 d0 45 ac bc 89 0e 35 bd 64 42 e3 bc 2e 0c 25 3d
       -0.021029383 -0.044203315 -0.027741618 0.04029482
0000b0 19 44 af bb ad 1f 3e 3c 3f 1a ad 3c 2c 8f ba bd
       -0.005348694 0.011604232 0.02113068 -0.09109339
0000c0 88 a7 8f bd 5c 46 c7 3b 1a 2e 6e bd 42 98 6c 3d
       -0.07014376 0.0060813855 -0.058149435 0.057762392
0000d0 19 fc 6d bd 9c b9 35 be a8 ec 6a 3c e4 f9 9a ba
       -0.058101747 -0.17746586 0.01433865 -0.0011823741
0000e0 bd f0 ac bc 0d 1f 5f bd c2 4e 1e 3c b7 30 d7 3c
       -0.021110887 -0.05447297 0.009662332 0.026268346
0000f0 c5 cf ef bc 6d ef a6 bc b0 7e 32 3d 1d 8e 06 3d
       -0.029273877 -0.020377839 0.04357785 0.032850374

weight f4 [10, 4096]
000000 8b 2e 21 3d c6 f5 99 bb 04 87 8e 3b 1a 4d 03 3b
       0.039351027 -0.004698488 0.004349591 0.002003497
000010 8b 1c cb 3b ee 7e c9 3b f7 76 b4 bc 22 52 92 bb
       0.006198471 0.0061491644 -0.022029383 -0.0044653574
000020 d0 43 1e 3d 58 c8 b5 bc 42 bc 63 bc 0c 80 98 bd
       0.03863889 -0.022190258 -0.013899865 -0.07446298
000030 fb e6 a3 3d e3 7e 09 3e 18 38 0a 3e f2 4f 1e 3e
       0.080030404 0.1342731 0.1349796 0.15460184
000040 bd dc 02 3e 87 3c 23 bb 10 71 a8 bb db 6f 7c be
       0.12779517 -0.0024907903 -0.005140431 -0.24652044
000050 45 bc 53 3e d6 6e 13 3e 31 b1 55 3e e5 34 66 3e
       0.20677288 0.1439775 0.20868374 0.22481115
000060 da 72 8a bd a9 c7 59 bd b6 0f b5 be d2 0b 3a be
       -0.067601874 -0.053168926 -0.3536355 -0.18168572
000070 d3 ba 78 bd 23 7e d6 3c 3e 1f 01 3e f9 5f 53 3e
       -0.060725044 0.026183194 0.12609574 0.2064208
000080 da b8 18 be a6 e0 60 bc c8 63 67 be b4 ce b8 be
       -0.14914265 -0.013725435 -0.22596657 -0.36095202
000090 ee 93 59 b9 47 56 b5 3d 20 a0 b2 3d 59 b5 4b 3e
       -0.00020749841 0.08854347 0.08721948 0.19893397
0000a0 74 ac 88 bc 41 ee 30 3d 25 f4 03 be f5 94 28 bd
       -0.016683795 0.043195967 -0.12886102 -0.04115768
0000b0 d4 43 83 3c 46 ed 15 bd 0b b0 30 3d 5c 27 39 3e
       0.016023554 -0.036603235 0.043136638 0.1808142
0000c0 ae f5 4a bd f5 25 02 3c d1 6c dc bd 44 84 10 3c
       -0.049550705 0.00794362 -0.107629426 0.008820597
0000d0 85 e7 50 3d b0 f8 d2 3d fb 42 21 3d fe 45 02 3e
       0.051002044 0.103013396 0.03937052 0.12722012
0000e0 e0 bc 80 3d 9f 13 af 3d 8f 8b 51 3d e1 ce 62 3d
       0.06286025 0.08548664 0.051158484 0.055373076
0000f0 6d 1c 56 3d f1 c0 68 3d 48 7b 91 3d 8e bd 56 3d
       0.052273203 0.05682463 0.07103592 0.052426867
000100 04 9d ed 3b 9e 11 06 bc 6e 8f 62 bc 68 6a 0f 3b
       0.0072513837 -0.008182911 -0.013828142 0.0021883491
000110 cc 12 4e bc 60 6a ec bb ce 5e 4c 3c 78 0a 75 bb
       -0.012577724 -0.0072148293 0.012473775 -0.0037390273
000120 a2 fb 62 bc 66 41 41 3c b0 f5 a2 ba 88 44 b2 bb
       -0.013853939 0.011795377 -0.001243284 -0.0054402985
000130 ac 50 2f bc 1c 5f 65 bc f0 7c 93 bb 00 94 ae 3a
       -0.010700386 -0.013999727 -0.0045009777 0.0013319254
000140 a6 ed 49 bc 48 1d e9 bb 3c 47 ed bb 40 e2 df b9
       -0.012324726 -0.0071140863 -0.007241158 -0.00042702444
000150 10 c1 c3 3a 88 36 b1 bb 00 b7 e4 b8 06 eb 1e 3c
       0.0014934856 -0.005408112 -0.000109059736 0.009699589
000160 62 bd 7f 3c d8 ad a9 3b 48 64 27 bc a6 9f 2a bc
       0.015609117 0.0051781945 -0.01021678 -0.01041404
000170 f0 63 df 3b dc 68 d9 3b 18 85 64 bc 60 c6 a1 bb
       0.0068173334 0.0066348147 -0.013947748 -0.004936978
000180 10 8a a8 ba c0 e1 0f bc e4 66 1e 3c e0 ec 57 ba
       -0.0012858529 -0.00878185 0.009668086 -0.0008236896
000190 3c 1b a7 bb c0 7e d6 39 1c 2f 20 3c 78 69 bf 3b
       -0.005099682 0.00040911697 0.009776857 0.0058414303
0001a0 c4 ae ca 3b 58 bb 00 bc 48 23 74 3b 30 83 05 3c
       0.0061853845 -0.007857166 0.0037252475 0.008148953
0001b0 0e 59 00 3c 0e 88 5b 3c d8 2d 00 bc a0 5b 11 bb
       0.007833732 0.013399137 -0.00782343 -0.0022179857
0001c0 fb 4a 1f 3c e4 2c e5 bb 24 7d 96 bb e4 cb 99 3b
       0.009722467 -0.006993877 -0.0045925546 0.004693495
0001d0 90 07 38 3b 06 11 6c 3c 00 ee 2b 3a 98 c3 61 bc
       0.002808068 0.014408356 0.0006558597 -0.013779543
0001e0 00 e8 d4 3b 2e 3e 5f bc 80 ff 31 3c 4c a0 8a 3b
       0.006497383 -0.013625665 0.010864139 0.0042305347
0001f0 f8 35 b9 bb 38 c4 61 bc 90 91 c3 ba 94 22 c2 bb
       -0.0056521855 -0.013779692 -0.00149207 -0.005924532
000200 0a 5d 12 3c 7f 82 37 3d 41 b4 5a 3d 03 84 0f 3d
       0.008933315 0.044802185 0.05339456 0.035038006
000210 ec 29 7e 3d 39 e4 9f 3d de 23 9f 3d 85 52 80 3d
       0.0620517 0.07807202 0.07770513 0.06265739
000220 2d c7 35 bd 1d 5a 10 bd 42 9d c0 be 94 60 47 bd
       -0.044379402 -0.03524219 -0.37619978 -0.04867609
000230 ba 58 a3 bd f4 50 4f be 58 a5 98 bd 4e e1 98 bd
       -0.079759076 -0.20245725 -0.07453412 -0.074648485
000240 9d 5f 3b bd fb a9 0f bc cb 25 a7 3d bd 54 9d be
       -0.04574548 -0.008768554 0.08161505 -0.30728713
000250 6d 0c cc be db ec 24 bf 64 3e 8b be 78 ca f0 bc
       -0.3985323 -0.6442391 -0.27196038 -0.02939342
000260 b2 ff 28 3c fb 98 0e 3e 43 72 80 3e dd ca c4 bb
       0.010314869 0.13925545 0.25087175 -0.0060056285
000270 bb 6d 67 bc 71 9e c1 bd da f0 42 be f0 99 f6 3c
       -0.014125283 -0.094540484 -0.1903719 0.0301027
000280 86 ff d9 3b 5b 87 a2 bb 9a f7 34 3e 41 92 95 bd
       0.006652775 -0.0049599833 0.17672578 -0.07303286
000290 fe 41 86 bd ac 21 ff 3d 56 78 85 be f8 85 56 3c
       -0.06555556 0.12457594 -0.26068372 0.013093464
0002a0 5a f4 23 3d 39 60 56 3d bc c4 29 3e 89 b4 92 3e
       0.040027954 0.05233786 0.16578954 0.28653362
0002b0 57 6a d9 ba 24 19 bc 3c 19 57 1c be 66 09 fd 3d
       -0.0016587478 0.022961207 -0.152676 0.12355308
0002c0 11 92 59 bd 71 a4 d5 ba dd aa b1 3d e6 e2 13 ba
       -0.053117815 -0.0016299618 0.08675168 -0.00056414155
0002d0 37 e2 14 3e 11 4a 69 3d 3d 29 76 3d 7c 7a 07 3e
       0.14539419 0.0569554 0.06009792 0.13230318
0002e0 94 9f ac 3c f5 cb 5f bc ef 84 8b bd ab ba ef bd
       0.021072187 -0.013659467 -0.068124644 -0.11705526
0002f0 7e d8 8f bd 4a 9c 10 3c 27 95 15 bd 09 67 ce bd
       -0.070237145 0.008826325 -0.036519196 -0.10078246
000300 47 e8 73 3b 24 02 f7 bb 7c b4 09 bc bd ac 67 3b
       0.0037217306 -0.007538097 -0.008404847 0.0035350763
000310 cd 13 1d 3c d8 80 5d 3c 1d fb 1a 3c aa 33 bc bb
       0.00958724 0.013519488 0.009459284 -0.0057434635
000320 e9 83 75 3c 41 9a 05 bc ff 23 39 3c 2a 18 33 bc
       0.014985063 -0.008154453 0.011300086 -0.010931054
000330 ee 40 5e 3b 80 96 e3 3b 8c 92 a2 3b 99 90 2f bc
       0.0033913213 0.006945431 0.0049613174 -0.010715627
000340 1a 20 05 bc 70 2c d1 3b 75 13 4e 3b eb 55 39 bc
       -0.008125329 0.006383471 0.0031444703 -0.011311988
000350 21 11 2e bb c1 08 ff ba a1 d7 a4 3b e9 ac 9d 3c
       -0.0026560503 -0.0019457565 0.005030588 0.019247489
000360 95 0c 63 3c 3f 4b 12 bc 7c 01 c6 3a 8f 55 21 3c
       0.01385798 -0.008929073 0.0015106644 0.009847059
000370 78 37 6d 3c df 15 af bb b5 5c 23 3c 68 fb 39 3c
       0.014478557 -0.0053431834 0.009970834 0.011351444
000380 06 d3 94 3c 67 df 66 3c e2 73 21 bb 52 fe d3 ba
       0.01816703 0.014091349 -0.0024635722 -0.0016173816
000390 3d f9 bb 3b c5 c5 00 bc 12 1d cd 3b 02 aa 8e 3c
       0.0057364986 -0.007859652 0.006259569 0.01741505
0003a0 c8 37 4b 3c d2 e1 98 3c ad fc a0 bb 77 22 b8 3b
       0.012403436 0.018662367 -0.004912934 0.005619343
0003b0 db 32 61 bb 4e 3e 35 b8 ff 6b 48 bb b7 68 2e bc
       -0.0034362588 -4.321179e-05 -0.0030581949 -0.010645083
0003c0 de bf 8d 3c 86 2a 15 bc 99 74 18 3c 0c 15 b4 3b
       0.017303403 -0.009104377 0.009305143 0.005495673
0003d0 8f 7e 98 3c cb a7 41 3c 46 58 8f 3c bf 8f cd 3b
       0.018615035 0.01181979 0.017498147 0.0062732394
0003e0 22 61 43 3c 5f b6 11 3b 43 69 a9 3b b1 2c 90 bb
       0.011925014 0.0022233946 0.005170019 -0.004399859
0003f0 10 4d 84 3c 19 cf 83 3c a0 4c 84 3b 58 26 23 3c
       0.016150028 0.016089963 0.0040374547 0.009957872

bias f4 [10]
000000 17 7d 30 3d e3 d5 d8 3c f9 80 e2 ba e6 37 93 3b
       0.043088045 0.026469177 -0.0017280868 0.0044927476
000010 d2 04 07 bd 91 f6 15 bd a6 10 b6 3b a8 95 f7 3b
       -0.03296358 -0.036612097 0.005556184 0.007555682
000020 b1 69 3d 3c 18 8d 95 bc
       0.011560843 -0.018255755
